2026-06-25 14:01:23,013 - INFO - Loaded config from: config/mnist.yaml
2026-06-25 14:01:23,013 - INFO - Using device: cpu
2026-06-25 14:01:23,064 - INFO - === MODEL ARCHITECTURE ===
2026-06-25 14:01:23,064 - INFO - ProbabilisticPalmModel(
  (encoder): PalmEncoder(
    (backbone): Sequential(
      (0): Conv2d(3, 64, kernel_size=(3, 3), stride=(2, 2), padding=(1, 1))
      (1): ReLU()
      (2): AdaptiveAvgPool2d(output_size=(1, 1))
      (3): Flatten(start_dim=1, end_dim=-1)
    )
    (fc_mu): Linear(in_features=64, out_features=128, bias=True)
    (fc_logvar): Linear(in_features=64, out_features=128, bias=True)
  )
  (decoder): PalmDecoder(
    (fc): Linear(in_features=128, out_features=16384, bias=True)
    (decoder): Sequential(
      (0): ConvTranspose2d(256, 128, kernel_size=(4, 4), stride=(2, 2), padding=(1, 1))
      (1): ReLU()
      (2): ConvTranspose2d(128, 64, kernel_size=(4, 4), stride=(2, 2), padding=(1, 1))
      (3): ReLU()
      (4): ConvTranspose2d(64, 32, kernel_size=(4, 4), stride=(2, 2), padding=(1, 1))
      (5): ReLU()
      (6): ConvTranspose2d(32, 3, kernel_size=(4, 4), stride=(2, 2), padding=(1, 1))
      (7): Sigmoid()
    )
  )
  (projector): Sequential(
    (0): Linear(in_features=128, out_features=128, bias=True)
    (1): ReLU()
    (2): Linear(in_features=128, out_features=128, bias=True)
  )
)
2026-06-25 14:01:23,067 - INFO - Bắt đầu quá trình huấn luyện VAE + Contrastive...
2026-06-25 14:01:27,379 - INFO - --- First Batch Info ---
2026-06-25 14:01:27,379 - INFO - x (Images) shape: torch.Size([4, 3, 32, 32]), dtype: torch.float32
2026-06-25 14:01:27,379 - INFO - y (Labels) shape: torch.Size([4]), dtype: torch.int64
2026-06-25 14:01:27,379 - INFO - x min: -1.0000, max: 1.0000
…
